ccrater/variables/conv2d_3_kernel_0.npy (npy, 73856 bytes, 1 tensors)

array f4 [32, 64, 3, 3]
0	0x3df552b3	0.11978664
1	0xbc789019	-0.015171074
2	0xbc6293cd	-0.013829184
3	0xbd0a6ecc	-0.03379707
4	0xbdd2ac1c	-0.102867335
5	0xbbf8c2e1	-0.0075915908
6	0x3d3bd2ef	0.04585546
7	0x3e210068	0.15722811
8	0x3d845615	0.06461731
9	0x3d3acf35	0.045607764
10	0x3d09a3ef	0.033603605
11	0xbc00945f	-0.007847874
12	0x3e1d4622	0.15358785
13	0x3dc6840f	0.09693157
14	0x3d55fd54	0.052243546
15	0x3e2bcf36	0.16778263
16	0x3dc73990	0.09727776
17	0xbdb2a61e	-0.087230906
18	0x3dce4507	0.1007176
19	0x3d8e6440	0.06952715
20	0xbd52e126	-0.05148425
21	0xbe27178c	-0.16317576
22	0xbe30009b	-0.17187731
23	0xbda54239	-0.080692716
24	0xbe040340	-0.12891865
25	0xbe5ae491	-0.21376254
26	0xbdd97d36	-0.10619585
27	0xbeb4b46a	-0.35293895
28	0xbe0b7c16	-0.13621554
29	0x3b402c87	0.0029323415
30	0xbe47f8fd	-0.19528575
31	0x3d9fc84f	0.07801878
32	0x3dd996af	0.10624444
33	0xbe334dc9	-0.17510141
34	0xbc419ed4	-0.011817653
35	0xbdc4d12f	-0.09610211
36	0x3dcdab96	0.10042493
37	0xbe2dd419	-0.1697544
38	0xbe05b586	-0.13057527
39	0x3dadbfa1	0.08483816
40	0xbda7e4ed	-0.08197961
41	0xbdc9b0d0	-0.098481774
42	0x3dac54d4	0.08414617
43	0xbda38d1b	-0.07985898
44	0xbc95deaa	-0.018294651
45	0x3e9657b9	0.29363802
46	0xbd1e9b5b	-0.038722377
47	0xbdc0ae04	-0.09408191
48	0xbc57c49d	-0.013169435
49	0xbea2e807	-0.31817648
50	0xbd97856e	-0.073984966
51	0x3e844602	0.25834662
52	0xbe351cd0	-0.17686772
53	0x3d7fd0d8	0.06245503
54	0xbc814eba	-0.01578461
55	0x3c4b04f3	0.012391317
56	0x3cb92920	0.022602618
57	0xbe2ff8d5	-0.17184766
58	0x3e60189a	0.21884385
59	0x3d023ae7	0.031794455
60	0xbe7bfb33	-0.24607544
61	0x3e392434	0.18080217
62	0x3d4ffce2	0.050778277
63	0xbeed9546	-0.4640295
64	0xbeb22489	-0.347935
65	0x3d8525a1	0.06501318
66	0xbf138801	-0.576294
67	0xbabadd00	-0.0014256537
68	0x3dd64006	0.1046143
69	0xbf016091	-0.50537974
70	0x3d35c148	0.04437378
71	0x3dc514a0	0.096230745
72	0xbd593e12	-0.05303771
73	0xbe2eb755	-0.17062123
74	0xbe69e4c4	-0.22841173
75	0xbd570297	-0.052492704
76	0xbdcf21d0	-0.10113871
77	0xbe9891e8	-0.29798818
78	0xbe1c60d1	-0.15271308
79	0xbe8e41a5	-0.27784458
80	0xbe3a0e38	-0.18169487
81	0x3d221d81	0.03957892
82	0xbd0a23d7	-0.033725586
83	0x3e4a543a	0.19758692
84	0x3ce8169d	0.028331095
85	0xbd8838f3	-0.06651487
86	0x3cc799e2	0.02436537
87	0x3cd532ce	0.026025202
88	0xbd01d9a6	-0.031701706
89	0xbd620a68	-0.055185705
90	0x3d948ebb	0.07253786
91	0xbe57ee8b	-0.2108709
92	0x3d238627	0.03992286
93	0xbc828f78	-0.015937552
94	0xbea63ee2	-0.3246985
95	0x3de8a47b	0.11359497
96	0xbc7a3338	-0.015271001
97	0xbe24c4d4	-0.16090709
98	0x3d6a06cb	0.057135385
99	0xbd3d1443	-0.0461619
100	0xbe5ca69d	-0.21547933
101	0xbe11340d	-0.14180012
102	0xbd17a7a9	-0.037025128
103	0x3dc230a8	0.09481937
104	0xbe80d692	-0.25163704
105	0xbe65c250	-0.22437406
106	0x3d1c7cf5	0.038205106
107	0x3f047bd4	0.51751447
108	0xbec2405a	-0.3793972
109	0xbe8e0acb	-0.2774261
110	0x3dda79c6	0.10667758
111	0xbe5d18a7	-0.21591435
112	0xbec7cdbd	-0.39024153
113	0xbe3805e3	-0.17970996
114	0xbdbe0acb	-0.09279402
115	0xbe39213e	-0.18079087
116	0xbdf534f3	-0.1197299
117	0x3e06dae5	0.13169439
118	0x3de82a3e	0.11336182
119	0xbeeacbb7	-0.45858547
120	0x3d52af3a	0.05143664
121	0x3d65fe42	0.056150682
122	0xbe85e4fe	-0.2615127
123	0x3d32a690	0.043615878
124	0x3d1a25b4	0.037633613
125	0xbdee9a34	-0.11650506
126	0x3e03ec8f	0.12883209
127	0x3d91dd08	0.071222365
128	0x3d3571a8	0.044297844
129	0x3dc974c8	0.098367274
130	0x3d62deb6	0.055388175
131	0x3d7dcc80	0.061962605
132	0x3e078035	0.13232501
133	0xbcb7e9b8	-0.022450313
134	0xbbcaf105	-0.0061932825
135	0xbe4d117d	-0.20026202
136	0xbe7d62da	-0.2474474
137	0xbe943183	-0.28944024
138	0x3e2d8ab4	0.16947442
139	0xbcec32d5	-0.028832832
140	0xbd7dac82	-0.061932094
141	0x3e0982e9	0.13428845
142	0xbb5521b8	-0.0032521319
143	0xbd5f1221	-0.05446065
144	0x3e1550ab	0.14581554
145	0xbc1834fc	-0.009289976
146	0xbe4bb803	-0.19894414
147	0x3e15f1fb	0.1464309
148	0x3d4a566b	0.04939882
149	0xbe9f7222	-0.31141764
150	0xbd937464	-0.07199934
151	0xbe8aff35	-0.27147833
152	0xba616039	-0.0008597407
153	0xbe7efc2e	-0.24900886
154	0xbc0d91b1	-0.008640693
155	0xbd41d526	-0.047322415
156	0xbe69165f	-0.2276244
157	0xbd1fc400	-0.03900528
158	0x3dc4583e	0.09587143
159	0xbe54d416	-0.2078403
160	0x3db76992	0.08955683
161	0xbd784fa3	-0.060622822
162	0xbe40cdab	-0.18828456
163	0x3e0c0576	0.13673958
164	0x3e748024	0.23877007
165	0xbde97f0d	-0.11401186
166	0x3e4b7b68	0.19871294
167	0x3e81cb0e	0.2535023
168	0xbe32497a	-0.17410842
169	0xbd82dd6e	-0.063898906
170	0x3e643f6c	0.22289819
171	0xbc80afd8	-0.015708849
172	0x3d8fe387	0.07025819
173	0x3d863c23	0.06554439
174	0xbb98e22f	-0.004665635
175	0xbddb014e	-0.10693608
176	0xbdb128df	-0.08650374
177	0xbcf386b5	-0.02972732
178	0xbead14fe	-0.33805078
179	0xbd913cbb	-0.070916615
180	0x3d54b2af	0.05192822
181	0xbb656acf	-0.003500629
182	0x3c9de519	0.019274281
183	0xbd10a851	-0.03531677
184	0x3ca3a33b	0.019975295
185	0xbb519b29	-0.0031983352
186	0x3d94a684	0.07258323
187	0x3d788f11	0.060683314
188	0xbd0b5b52	-0.034022637
189	0x3d062aa9	0.032755528
190	0x3ce28fd7	0.027656479
191	0xbe66849b	-0.22511522
192	0xbea4887b	-0.32135376
193	0xbe0f3b6f	-0.13987516
194	0xbc145d18	-0.009055398
195	0xbed62c9a	-0.41830903
196	0x3c15e32e	0.009148402
197	0xbe09902d	-0.13433905
198	0x3dac71bf	0.08420133
199	0x3e476204	0.19470984
200	0xbd466f39	-0.048445914
201	0x3de34451	0.11097015
202	0x3cb5e171	0.022202225
203	0xbe882e14	-0.26597655
204	0xbc71ef4f	-0.014766528
205	0xbe1c9e3d	-0.15294738
206	0xbeaa0d5b	-0.33213314
207	0xbdbd64f3	-0.0924777
208	0x3dd2ad2a	0.10286935
209	0x3d9a2093	0.07525744
210	0x3db8ebf3	0.09029379
211	0x3db42632	0.08796348
212	0x3e631821	0.22177173
213	0x3ea9b7aa	0.33147937
214	0x3e86f4ef	0.26358745
215	0x3d21ad6b	0.039472025
216	0x3ddb6f3d	0.107145764
217	0x3d1c0543	0.038090955
218	0xbbf4b029	-0.007467289
219	0xbd053706	-0.032523178
220	0xbde1f43a	-0.11032911
221	0xbd62b09d	-0.055344213
222	0xbe0294f5	-0.12752135
223	0xbd931ae7	-0.071828656
224	0xbd721ad1	-0.059107605
225	0x3d5f5e8c	0.054533526
226	0xbd93c371	-0.07215012
227	0x3e18564b	0.14876668
228	0x3de273c9	0.110572405
229	0xbdd66d89	-0.10470111
230	0xbcff1ba1	-0.031141104
231	0xbe5f8c01	-0.21830751
232	0xbe3c94bb	-0.18416111
233	0xbe061d85	-0.13097198
234	0xbd7752bb	-0.060381632
235	0xbe91fca4	-0.28513062
236	0x3e3dd64c	0.18538779
237	0xbcb4a74e	-0.022052433
238	0xbe95ef45	-0.2928411
239	0xbe45e613	-0.19326048
240	0xbd9ccaf5	-0.076558985
241	0xbe15197f	-0.14560507
242	0xbdb60856	-0.08888309
243	0xbe0871fe	-0.13324735
244	0x3d485d62	0.04891718
245	0xbd4d0fa9	-0.050063763
246	0x3d8215ca	0.06351812
247	0x3dfdca2a	0.12392075
248	0xbe1b76e3	-0.1518207
249	0xbde8a9e8	-0.11360532
250	0x3cf1e065	0.029525945
251	0xbd8560ab	-0.065125786
252	0xbe3cb85e	-0.18429706
253	0xbdd5e147	-0.10443359
254	0xbcf4a541	-0.029863955
255	0xbd3e6603	-0.046484005
