ccrater/variables/conv2d_4_kernel_0.npy (npy, 36992 bytes, 1 tensors)

array f4 [32, 32, 3, 3]
-0.017096289 0.062209535 -0.08646581 -0.06340866 0.07895581 -0.18599536 0.032380603 -0.03131694
-0.13932116 0.102844186 -0.08257968 -0.08902737 0.056708712 -0.011828748 0.09217226 0.077388875
0.08952248 -0.058945622 -0.2279367 -0.09810676 -0.018853093 -0.43748978 -0.03611387 -0.08035587
-0.15316032 -0.086573645 -0.14530586 -0.051866557 -0.011328321 -0.15429606 0.12733573 0.049515903
0.0069222474 -0.04555513 0.10139733 -0.06277779 -0.38777497 -0.22072123 0.09486203 -0.08228812
-0.014777318 -0.19708526 -0.27295074 -0.3275509 -0.0732758 -0.32100934 -0.30801117 -0.17856352
-0.17148978 -0.37440896 -0.17187563 -0.28597197 -0.32621697 -0.2491384 -0.13147452 0.042570136
-0.032989714 -0.07588399 0.05452607 0.0015116619 -0.18435554 -0.10423772 -0.13269114 0.10331101
0.106158406 -0.017948255 0.028219773 -0.010800124 -0.008802346 0.025265312 -0.008145731 0.007304482
-0.2356403 -0.39956173 -0.20561267 -0.30429846 -0.39695865 -0.116249435 -0.33575347 -0.2681216
-0.105542205 0.09793241 0.006808387 0.1385387 0.1304863 -0.0050002486 0.21820872 -0.14758705
-0.14431293 0.011470547 -0.038427513 -0.11300497 -0.0628387 -0.063031584 -0.27361655 -0.033686277
-0.04435556 -0.2974274 -0.17304666 -0.0546139 -0.12663788 -0.094831 -0.12845986 -0.20066091
-0.07639047 -0.18694422 -0.17057063 0.16752099 0.26279926 0.07730966 0.009001465 0.06560344
0.26546305 -0.08978117 -0.28522575 -0.11965545 0.08544788 0.008957758 -0.03167535 -0.04975511
0.052283727 0.03205934 -0.046697434 0.035988566 -0.118612684 -0.006895547 0.21025155 -0.026091944
-0.06018376 0.11988636 0.049680986 -0.025976952 0.14149068 0.18150856 0.10594724 -0.039008476
0.12894288 0.16909611 -0.075610876 0.022391208 -0.03520622 0.22459996 0.025682941 0.2024152
-0.10919179 -0.13972825 -0.29734898 -0.13369304 -0.16716756 -0.26952943 -0.13505775 -0.13946666
-0.23931046 -0.22039245 -0.19532174 -0.25922188 -0.07048532 -0.18207473 -0.11615798 -0.17715248
-0.122353815 -0.016748816 0.012690946 -0.27780375 0.021672448 0.07481084 -0.37567917 -0.010935762
0.04983937 -0.16558498 -0.011538308 0.018419594 -0.04863606 -0.05652746 0.055854466 0.06948954
-0.047431454 -0.014914707 0.12104091 -0.081105225 0.002473774 -0.3301908 -0.15440674 -0.1104696
-0.13259222 -0.24227095 -0.09597253 -0.24320973 -0.06550762 -0.06322316 0.07996567 0.053600665
-0.13579315 0.11949493 -0.11347357 -0.026112016 0.10113924 0.10327834 0.06659343 0.04834282
0.082507126 0.02284604 0.033805892 -0.040492367 0.025402362 -0.064803176 -0.05287364 -0.08059929
0.17099284 0.13728112 -0.09003653 0.13407028 -0.06992347 0.13332054 -0.0018715995 -0.16171452
0.12416686 0.07264686 -0.07112825 0.00069306005 0.07479898 0.036709312 0.06385933 0.06910814
-0.086591356 0.016567994 0.01795104 -0.043394003 0.13096456 -0.0011440461 0.05091507 -0.015628625
0.01614907 -0.066794805 -0.096246235 0.14875953 0.085220695 -0.09226151 0.022917133 -0.061121657
-0.046825163 -0.10005039 -0.10223052 -0.13037542 -0.2602383 -0.25042826 -0.14889297 -0.12589483
-0.30643818 -0.13008738 -0.10769973 -0.1472978 0.069635056 -0.10503648 -0.036724214 0.16554566
00000000: 840d 8cbc 6dcf 7e3d fd14 b1bd 66dc 81bd
00000010: 95b3 a13d 9175 3ebe 86a1 043d 3146 00bd
00000020: 35aa 0ebe f99f d23d 891f a9bd fb53 b6bd
00000030: 6547 683d 5dcd 41bc cfc4 bc3d 0f7e 9e3d
00000040: 9057 b73d f770 71bd 3d68 69be 32ec c8bd
00000050: cd71 9abc a9fe dfbe 23ec 13bd 9e91 a4bd
00000060: 0fd6 1cbe 864d b1bd 0fcb 14be 0772 54bd
00000070: 6c9a 39bc c9ff 1dbe 4c64 023e 30d1 4a3d
00000080: 05d4 e23b 0498 3abd 67a9 cf3d a491 80bd
00000090: 718a c6be bf04 62be 0647 c23d ad86 a8bd
000000a0: 901c 72bc b8d0 49be 33c0 8bbe c0b4 a7be
000000b0: 9f11 96bd 565b a4be a4b3 9dbe 5bd9 36be
000000c0: 049b 2fbe 88b2 bfbe 2a00 30be eb6a 92be
000000d0: e905 a7be 231e 7fbe 42a1 06be 065e 2e3d
000000e0: 3920 07bd 1169 9bbd ba56 5f3d f522 c63a
000000f0: b3c7 3cbe 967a d5bd 30e0 07be b994 d33d
00000100: 9469 d93d 3808 93bc 272d e73c 01f3 30bc
00000110: b737 10bc 33f9 ce3c ac75 05bc 705a ef3b
00000120: b14b 71be 5b93 ccbe 218c 52be 02cd 9bbe
00000130: 2a3e cbbe 2f14 eebd e1e7 abbe 3c47 89be
00000140: 8326 d8bd ca90 c83d e418 df3b 17dd 0d3e
00000150: 339e 053e 20d9 a3bb 1b72 5f3e 0f21 17be
00000160: c5c6 13be f6ee 3b3c 2b66 1dbd 266f e7bd
00000170: 94b1 80bd b416 81bd 7817 8cbe 9ffa 09bd
00000180: 2dae 35bd 6748 98be 2533 31be d3b2 5fbd
00000190: 5cad 01be c136 c2bd fb8a 03be 0e7a 4dbe
000001a0: 9b72 9cbd 4e6e 3fbe 11aa 2ebe 9f8a 2b3e
000001b0: a08d 863e 8754 9e3d e17a 133c 195b 863d
000001c0: c6ea 873e 31df b7bd 1c09 92be eb0d f5bd
000001d0: 4cff ae3d 8fc3 123c 03be 01bd 04cc 4bbd
000001e0: 7627 563d a850 033d cf45 3fbd bf68 133d
000001f0: 35eb f2bd 0af4 e1bb 2f4c 573e c6be d5bc
00000200: 3f83 76bd fb86 f53d 4a7e 4b3d 9ecd d4bc
00000210: efe2 103e 61dd 393e defa d83d 5ac7 1fbd
00000220: 9a09 043e 8827 2d3e e0d9 9abd c46d b73c
00000230: 6634 10bd 88fd 653e 0865 d23c ee45 4f3e
00000240: f29f dfbd ec14 0fbe 203e 98be d4e6 08be
00000250: f92d 2bbe c3ff 89be 944c 0abe 59d0 0ebe
00000260: cd0d 75be 8fae 61be 6c02 48be bbb8 84be
00000270: 9c5a 90bd cc71 3abe 3ce4 edbd 7667 35be
00000280: a394 fabd d034 89bc b0ed 4f3c 4b3c 8ebe
00000290: 6b8a b13c 6d36 993d 0559 c0be e92b 33bc
000002a0: 5e24 4c3d 1c8f 29be 2c0b 3dbc b0e4 963c
000002b0: 9b36 47bd 5789 67bd a7c7 643d 8850 8e3d
000002c0: 7c47 42bd d15c 74bc 4ce4 f73d 7f1a a6bd
000002d0: 0a1f 223b c50e a9be cd1c 1ebe e33d e2bd
000002e0: 41c6 07be e015 78be 3f8d c4bd f90b 79be
000002f0: dc28 86bd 257b 81bd 0bc5 a33d 5f8c 5b3d
00000300: 5c0d 0bbe c2b9 f43d d564 e8bd dee8 d5bc
00000310: 1722 cf3d 9883 d33d 2362 883d 1f03 463d
00000320: 7ff9 a83d 9e27 bb3c 0c78 0a3d 53db 25bd
00000330: 9d18 d03c 87b7 84bd 0892 58bd 3e11 a5bd
00000340: bf18 2f3e 6c93 0c3e 1265 b8bd b849 093e
00000350: 0934 8fbd 2e85 083e 7550 f5ba 7e98 25be
00000360: 324b fe3d e0c7 943d b0ab 91bd 79ae 353a
00000370: 3530 993d 815c 163d aec8 823d 9288 8d3d
00000380: cf56 b1bd 9ab9 873c 0f0e 933c e9bd 31bd
00000390: 931b 063e d1f3 95ba 528c 503d 9a07 80bc
000003a0: 0e4b 843c b7cb 88bd bf1c c5bd 6b54 183e
000003b0: 3088 ae3d 9af3 bcbd b6bc bb3c b45a 7abd
000003c0: becb 3fbd 38e7 ccbd 3c5e d1bd 2281 05be
000003d0: f43d 85be 2238 80be 6677 18be 93ea 00be
000003e0: 77e5 9cbe a035 05be ad91 dcbd 3cd5 16be
000003f0: d39c 8e3d 5e1d d7bd 216c 16bd cd84 293e
