ccrater/variables/conv2d_kernel_0.npy (npy, 4736 bytes, 1 tensors)

array f4 [128, 1, 3, 3]
00000000: 79fc 74bd 2116 bc3c 6052 743c 39f3 9fbb
00000010: 8218 cc3c 8b74 10bb b5fa c0bc d3da a03c
00000020: 985e 403c e95d bb3d 73f1 bfbd 4c1c e83c
00000030: 7982 4d3d d5af 1fbc a7c1 543c ba99 173b
00000040: 68b6 a83b cf19 ed3c 176f b6bd a544 1fbd
00000050: 799d 93bd a98e da3d 7709 e3bb 4ffd 8d3d
00000060: ade3 a33d 341a a03c 7ad6 96bb 6be5 8e3e
00000070: 1264 7c3e e5de 69bd 4be4 ed3c 3f0e 23bd
00000080: a459 d4bd 087c 90bd ae86 ddbd 2fa2 aebd
00000090: 77e7 35bd 1c2d e6bd 6592 ff3d 0810 373c
000000a0: 0916 8dbd ad26 3b3e f270 a0bd aade aabd
000000b0: f7f8 0b3e f320 2c3e e8db edbd 41b0 00bd
000000c0: b7cd 143e f597 00bd e229 5cbc bef1 76bd
000000d0: 425a 79bd 1e21 133e e834 ac3d f83e 913b
000000e0: f66d fb3d e915 01bd fd97 633d 73ba ec3d
000000f0: 34d4 05bd 05d3 913a d613 41bd 83f9 7a3e
00000100: 4a13 c83d f957 1fbe 3930 11bc d4b2 d7bd
00000110: 369c d9bd 05a3 5fbe 3e2f e73b d87b 913e
00000120: 2552 823c 28d2 6abd 7d67 dabd af6f acbd
00000130: e347 853c 86ba 193e 3635 33bd e513 42bb
00000140: 3eb5 6d3e 2f30 a3bd 4651 a9bd 51c9 423e
00000150: 3602 513c e75f 0cbd b643 e93d 6937 613e
00000160: 95e5 4dbd d1f8 26be 87be 1d3e 5e2b 93bc
00000170: 621e 7a3d 0d5e f63d 48d2 a8ba e03c 78b9
00000180: 7668 aabd 9452 92bd cff6 8dbd f553 4ebb
00000190: cfa0 09bd 0f0b d3bb c8d2 973c 423b adbd
000001a0: 2219 a8bd 7dbf 0bbe fc72 623e 3285 373e
000001b0: f981 d43c c604 2dbd e9e7 ccbd b481 e4bd
000001c0: 169c b23e 9c4e e73d 0bbb 383c c3e9 17be
000001d0: 3da1 f4bc 807b 2f3c 76ae f73d c23b f2bd
000001e0: 09b3 86bd fc5a 5dbd c2e7 ec3c 4164 523d
000001f0: 4e27 c1bd 1427 163e 4042 5fbd 7123 903b
00000200: 2645 0c3d 5d4d 85bd cff1 d6bc 927d 023d
00000210: 1278 633e 9082 853d 534e cb3d 2f5b 3bbd
00000220: b5e4 353e d72a b33d 0d42 d1bd d803 873c
00000230: 28ab 413d 5009 08be 9571 46bd 6080 a3bd
00000240: 8995 c93d c4b5 bbbc 3273 08be d521 413c
00000250: 2f5a 1a3d 7711 d53d 5691 b1bc 4d21 80bd
00000260: bf87 173e e69b 303e 80a2 f53d 78e2 ffbc
00000270: 5e15 ba3d e6f9 efbc 9734 77bd b98c 9fbd
00000280: 3539 e4bd f3f8 f2bc 9a1e 133e b6bd 273e
00000290: 6b4f 763d ce01 c0bd fde1 06be 49a0 0a3d
000002a0: 0f8e ee3c bdf0 4abd 67b4 973c 225e 61bd
000002b0: 086b 61bd c347 ed3c 0add 19bd a5cf 38bd
000002c0: 2a82 a8bd 6b71 c9bd 2009 9f3d f322 883e
000002d0: 7c20 19be e60c e63d dbb3 793e 70c9 a5bd
000002e0: 8ea0 18be f7e3 78bd 10c7 793e 0c70 4d3d
000002f0: d3eb 8cbd 1e52 fdbc 2eeb b3bd f8c7 10bd
00000300: 2082 493e 705d 7b3d 3483 173b 4b5b 82bb
00000310: 9675 533c 638a dc3c 652e 7f3d 662d 453e
00000320: d168 a63d e6b3 813c b91f 94bd f517 783d
00000330: 6531 efbd 4fa5 a1bc fa3a b4bd 034b b33d
00000340: 94fc 96bc f372 e6bd c33e 9abc 8404 033c
00000350: 2296 b73e 5ec2 39bd 8576 82bd e50d eabd
00000360: ce1b 5cbc bf42 dd3b d6b4 ecbd 20f5 ca3d
00000370: fb80 19be 5000 943e a95d 3d3c 8dac 063e
00000380: c1cd 18be 295d d7bc 9bcd 5e3d f601 fdbd
00000390: 50b9 8e3c f872 653d 75d7 81bc 9679 fb3d
000003a0: 9102 ebbd 4275 543e 79b0 d1bc d4ed 16bd
000003b0: 839d 5b3d 0c2b dfbc 09c1 e53b a745 af3c
000003c0: b15e 793b 689d 87bc 96f1 3ebb 2fef 47bd
000003d0: 7ae2 69bd 3b2c 16bc d41d 133d a0a9 8cbd
000003e0: 3148 b6bd 5895 163e 4bd9 fc3d dadd 47bd
000003f0: 4744 923b bdf2 153e 7f42 1abc df80 8ebb
-0.05981109 0.02295977 0.014912218 -0.0048812893 0.02491403 -0.0022042121 -0.023557046 0.019635594
0.011741303 0.09148771 -0.09372225 0.028333806 0.050173257 -0.0097465115 0.012985623 0.00231324
0.0051486976 0.02894297 -0.089079075 -0.038883824 -0.0720777 0.106717415 -0.0069286185 0.069330804
0.0800241 0.019543745 -0.0046032043 0.27909407 0.24647549 -0.057097334 0.029039523 -0.039808508
-0.1036866 -0.07054907 -0.10816704 -0.08527028 -0.044410195 -0.11239073 0.124790944 0.011173256
-0.068889685 0.18276472 -0.078340426 -0.08343251 0.13669191 0.16809444 -0.116142094 -0.03141809
0.14531599 -0.031394918 -0.01343772 -0.060289137 -0.060877092 0.14368102 0.084085286 0.0044325553
0.12276833 -0.031515036 0.05556487 0.11559 -0.032673076 0.0011125511 -0.047138058 0.24509244
0.09769304 -0.15560903 -0.008861595 -0.10532156 -0.10625498 -0.21839531 0.0070551923 0.28414798
0.01590831 -0.057329327 -0.1066427 -0.084197395 0.01626963 0.1501256 -0.043751918 -0.002961391
0.2321367 -0.07968175 -0.08267455 0.19022109 0.012756875 -0.034271147 0.11389868 0.21993794
-0.050267775 -0.16305853 0.15404712 -0.017965015 0.06106413 0.120296575 -0.0012880052 -0.00023673801
-0.083207056 -0.07144657 -0.06931841 -0.0031483148 -0.033600625 -0.0064405273 0.018533126 -0.08458568
-0.08207919 -0.13647266 0.22114176 0.17921904 0.025940882 -0.04224088 -0.10005171 -0.111575514
0.3488471 0.112942904 0.011275063 -0.14835267 -0.02986204 0.010710597 0.12093823 -0.11827804
-0.06577117 -0.054041848 0.028919104 0.05136514 -0.09431325 0.14663345 -0.05450654 0.004398756
0.034245633 -0.065088965 -0.02623835 0.031858034 0.22213772 0.065190434 0.099270485 -0.045741256
0.17763026 0.087484054 -0.10217676 0.016481325 0.047282368 -0.13284802 -0.048448164 -0.0798347
0.09842975 -0.022913821 -0.13325194 0.011787851 0.037683662 0.10403722 -0.021675747 -0.062563516
0.14797877 0.1724697 0.11993885 -0.031235918 0.09086107 -0.029293966 -0.060352888 -0.077905126
-0.11143724 -0.029659724 0.14367142 0.16380963 0.060134333 -0.09375344 -0.13172145 0.033844266
0.029120473 -0.049545992 0.01851864 -0.055021413 -0.055033714 0.028964883 -0.037564315 -0.0451199
-0.08227952 -0.09836086 0.07765412 0.26589164 -0.14953798 0.11232929 0.24385016 -0.08095062
-0.14904997 -0.06076428 0.24392343 0.050155684 -0.068809174 -0.030922946 -0.08785091 -0.035346955
0.19678545 0.061368406 0.0023118975 -0.003978168 0.012906453 0.026921457 0.062300105 0.192556
0.08125461 0.015832853 -0.07232613 0.060569722 -0.11679343 -0.019732146 -0.088003114 0.08754542
-0.018430986 -0.112523936 -0.018828755 0.007996682 0.3585673 -0.04535138 -0.06370262 -0.114284314
-0.0134343635 0.0067523415 -0.11557929 0.09910035 -0.14990608 0.28906488 0.011557975 0.1315176
-0.14922239 -0.02628954 0.0543953 -0.1235389 0.017422348 0.056017846 -0.015849808 0.1227905
-0.11475099 0.20747855 -0.025596844 -0.036847904 0.05361701 -0.027242206 0.007011537 0.021395518
0.0038050825 -0.01655455 -0.0029135696 -0.048812088 -0.05710075 -0.009165819 0.03591712 -0.06868291
-0.08900488 0.14705408 0.12346133 -0.04879556 0.0044637057 0.14643379 -0.009415268 -0.0043488587
