ccrater/variables/conv2d_1_kernel_0.npy (npy, 295040 bytes, 1 tensors)

array f4 [64, 128, 3, 3]
000000 e1 c5 90 3b 4d ec 5b bd 80 c8 ff 39 ee bc 29 bd
       0.0044181203 -0.05369215 0.00048786774 -0.041439943
000010 b7 0c 71 3d 65 7b a1 bd e8 0d 82 bd a9 35 05 3d
       0.058850016 -0.07884864 -0.06350309 0.032521877
000020 1a b2 fb bc 4b d4 b7 3d 2f f2 f3 3d 90 cb 8e bd
       -0.030724574 0.089760385 0.11911427 -0.0697242
000030 bd 8a 3d 3b e6 5b a6 3d 79 cd e6 bd 3c 31 e8 3b
       0.0028921806 0.08122997 -0.112696595 0.0070859473
000040 f2 a8 e8 bc 2c 89 05 3d c4 9a 06 3e bf 74 f0 bb
       -0.028400872 0.03260152 0.13144976 -0.007338136
000050 97 47 53 3e 5f 8a 36 bd 04 7e 33 3d 4e 2e 36 3e
       0.20632778 -0.044565555 0.04382135 0.17791101
000060 10 e1 84 bd a8 c8 e1 bd 8d 07 8c 3d dd 7e 44 be
       -0.0648824 -0.110246 0.06837378 -0.1918902
000070 66 73 f4 bc 17 57 72 be f9 62 d5 3d b9 49 b9 3d
       -0.029840183 -0.23666035 0.10419268 0.090472646
000080 55 ca 8e bd 58 b0 ce 3b b2 c6 be bd 74 a4 84 be
       -0.069721855 0.006307643 -0.09315242 -0.25906718
000090 21 ea 28 be 34 4c 88 be a4 dd 95 3d 38 20 88 bd
       -0.16495563 -0.26620638 0.07317665 -0.0664677
0000a0 e3 ba 57 be f1 82 b7 3d 30 87 f4 bc 25 1c fa bc
       -0.21067385 0.08960522 -0.029849619 -0.030530998
0000b0 3b f1 26 3e 29 fc 0f bb d0 ee 94 3d 14 04 7f bd
       0.1630296 -0.0021970368 0.07272112 -0.06225975
0000c0 74 fd 33 3d 23 98 14 3d ec 76 ac bd 77 d4 48 3d
       0.043942884 0.0362779 -0.0842112 0.049030747
0000d0 ce 6f 62 3d 4e 93 a5 bd 7c e0 ad bc 7c b2 17 be
       0.055282407 -0.08084737 -0.021225207 -0.1481418
0000e0 5a 90 29 3d 2e fc 15 bd 76 45 03 bd 9d 2d 4d 3d
       0.04139743 -0.03661745 -0.032048665 0.05009233
0000f0 63 07 85 3c c0 34 f9 bc 07 c6 b4 3c 9c 90 19 3d
       0.016238874 -0.030420661 0.022067083 0.037491426
000100 0c 0e d6 bd 20 de 0e be 5c 75 c4 3d b5 63 ef 3d
       -0.10451898 -0.13951921 0.09592697 0.116889395
000110 ba 78 fa 3d 6a d4 d7 bd 43 a9 9f bd 78 1b 6c 3c
       0.12230058 -0.10538562 -0.07795956 0.014410846
000120 15 1a 6d 3d 3c d5 01 3d f3 73 a4 bd 58 93 82 3e
       0.057886202 0.031697497 -0.08029928 0.2550304
000130 fb 7c 98 bd 32 ab 2e bd 38 cd e3 3c 29 13 91 3e
       -0.07445713 -0.042643733 0.027807817 0.2833493
000140 89 12 88 3d 31 52 12 3d 49 d6 af bd b2 dd 2d be
       0.0664416 0.035722915 -0.085857935 -0.16979101
000150 4a aa 64 3d bf 40 3e 3d 5c 33 b1 3d 69 9a 8a 3d
       0.055826463 0.046448465 0.08652374 0.06767733
000160 49 0c b6 3c 66 d6 e5 3c d1 8c 0e 3d ab 32 0c bd
       0.022222655 0.028056335 0.03480226 -0.03422801
000170 6c ef de bd 7d 64 31 3d 83 e5 31 bd 17 05 a2 3d
       -0.1088551 0.043308724 -0.04343177 0.07911127
000180 6d 40 ef bc f7 11 f5 bd b5 55 4a be 4a 03 ab bd
       -0.029205525 -0.11966317 -0.19759257 -0.08350237
000190 06 8c fc bd 9f f7 a7 bd 52 d7 49 be da 6b c7 3d
       -0.12331395 -0.08201527 -0.19711044 0.09737368
0001a0 39 e3 f1 3c c1 9f 03 bd 1d c6 64 3d 5f 46 b6 3c
       0.029527294 -0.032134775 0.055852998 0.022250352
0001b0 fe 31 20 3d bc 4b 2b 3e ae 7e 77 be 6f ee 94 be
       0.039110176 0.16728109 -0.24169418 -0.2908816
0001c0 a3 d2 0e bd 3b 07 46 be e9 04 da bc ef 0a 8d 3e
       -0.034868848 -0.19338696 -0.02661367 0.27547404
0001d0 b0 ad 33 3e a0 42 0d be 89 ec c6 bd b1 3c 6f 3c
       0.17546725 -0.13794947 -0.09713084 0.014601872
0001e0 e5 79 a4 3d 68 04 b1 bc c7 87 4e bc ea a5 eb 3c
       0.08031062 -0.021608546 -0.012605614 0.028765637
0001f0 8c c6 24 3e 35 b4 1f bc c7 69 bb bd 02 20 38 bd
       0.16091365 -0.009747555 -0.09151035 -0.0449524
000200 6c 77 cd 3d 33 33 41 be ae e6 3c be d2 31 b0 3d
       0.100325435 -0.18867187 -0.18447372 0.086032525
000210 e8 fa e6 3d e9 a0 3b 3e db 9b 19 3e 88 a2 86 bd
       0.11278325 0.18323101 0.1500086 -0.06573969
000220 4b c1 39 3d 2a d2 ad 3c cf e3 81 bd 7b 67 fe 3b
       0.045350354 0.021218378 -0.06342279 0.0077638007
000230 08 25 1d 3d f0 05 c3 bd 5d 58 e0 3c 0a f2 af bd
       0.038365394 -0.09522617 0.027385885 -0.08591087
000240 b5 bb 54 3e a5 52 6a bd 91 7b b6 be fe 34 4d 3c
       0.2077473 -0.057207722 -0.3564115 0.012524841
000250 d8 16 94 be ef 71 10 be 63 6d 01 3e 61 2f 64 3e
       -0.28923678 -0.14105962 0.12639384 0.22283699
000260 b4 d9 38 be d3 00 1a be 89 9a b3 bd df fc f5 bd
       -0.18051797 -0.15039377 -0.087697096 -0.12011122
000270 e4 40 d5 3d c4 0a 3b 3d be 2a 5c 3d d9 e0 1f be
       0.104127675 0.045664564 0.0537517 -0.15613116
000280 93 29 b3 bd 1f 73 ef bd 07 af 73 3c 23 b2 8b bd
       -0.08748164 -0.116918795 0.014873273 -0.06821086
000290 8c 19 32 3b 85 93 3c 3e 84 5b 03 37 c7 37 37 3e
       0.0027175872 0.18415649 7.829516e-06 0.17892371
0002a0 ab c0 30 3e 05 f5 17 bc 87 01 4c be 85 f3 8a bd
       0.17260997 -0.009274726 -0.19922458 -0.06784729
0002b0 17 04 b4 bd 26 23 ad bb 90 6b 27 bd 86 b1 28 3d
       -0.087898426 -0.005283731 -0.040874064 0.041184925
0002c0 65 ae 85 bb 70 ca 8d 3a 49 a1 40 3d 89 84 e5 3d
       -0.0040796273 0.0010817777 0.047028814 0.1120692
0002d0 fd 8c ec bd 40 0f d7 bd 53 f8 77 bd 16 93 ca bd
       -0.11550329 -0.105009556 -0.060539555 -0.09891336
0002e0 d1 3a 34 be bf 2c b5 3d 8d b6 c7 bd 0e d9 8e bd
       -0.17600562 0.08846425 -0.09751616 -0.06974994
0002f0 86 87 05 bd 3b fb 0b 3d 19 2c 5d 3d 7e ad 84 bd
       -0.03259995 0.03417514 0.053997133 -0.064784035
000300 1c 4c 98 3d 20 ad 4a 3c 0d 92 e7 3d 72 f1 be bd
       0.07436392 0.012370378 0.11307154 -0.09323396
000310 10 b9 2e 3d be 4f 0d 3e e5 9d b4 3c 23 2f ba bb
       0.042656958 0.1379995 0.022047946 -0.0056818887
000320 67 ef b1 bd 12 73 bf 3d 62 46 a9 3c 22 b0 9b 3e
       -0.086882405 0.0934812 0.020663444 0.30407816
000330 43 10 0a be 8c 8d 88 be 30 99 94 bd ad 04 e1 3d
       -0.13482766 -0.26670492 -0.07255781 0.1098722
000340 7c e6 dc bc d5 27 6d bb 01 1e 5a bc 12 77 15 be
       -0.026965372 -0.0036187072 -0.013312818 -0.14596203
000350 7b fb 6e 3b fd 81 09 3e e5 78 f8 3d ab 70 74 3c
       0.0036465812 0.13428493 0.12132434 0.01491944
000360 49 be 1a 3e 24 ba 9e 3a 8e 02 eb bd 66 0b 22 bd
       0.1511165 0.0012109918 -0.11475097 -0.03956165
000370 84 53 18 be 95 87 9a 3d df 1f 30 3e 3b b9 71 3d
       -0.14875609 0.075453915 0.17199658 0.05901454
000380 83 bd 10 3e 70 12 b1 bb f1 56 7e bd 74 5f 8c be
       0.14134793 -0.0054038092 -0.062094633 -0.27416575
000390 d7 9c 3e 3e b8 e5 10 3e a1 9c 0c 3e 21 3b 95 3d
       0.18614517 0.14150131 0.13731624 0.072866686
0003a0 3a 01 88 3c e1 8a 56 bd 1a d1 57 bd 50 fa 84 3d
       0.016602147 -0.05237854 -0.05268965 0.06493056
0003b0 8f 4a b8 ba f4 45 90 3c 99 5d 29 bd a6 4e 74 bd
       -0.0014060306 0.017611481 -0.041349027 -0.059645317
0003c0 8b a2 8d bd 41 0e 5a bd 1d 0e 92 bd 96 a6 85 bd
       -0.06915768 -0.05323625 -0.07131598 -0.06525914
0003d0 42 95 21 3a 7d 5c 06 bd 06 be 8d bd 9f a8 34 bd
       0.0006163904 -0.032803047 -0.0692101 -0.044106122
0003e0 52 11 39 3d f3 48 1d 3d 9e a9 0a 3d ab 0f 88 bd
       0.045182534 0.038399648 0.033853166 -0.066436134
0003f0 cd eb 2a be b6 9b 94 3d 13 36 df bd 4a 8f 01 be
       -0.16691513 0.07256262 -0.10898986 -0.12652317
