ccrater/variables/conv2d_5_kernel_0.npy (npy, 36992 bytes, 1 tensors)

array f4 [32, 32, 3, 3]
0	0xbd25d674	-0.04048772
1	0xbe05c11a	-0.13061944
2	0xbd3aea99	-0.045633886
3	0xbd47cacf	-0.048777398
4	0xbdfa1be1	-0.12212349
5	0xbdbd6679	-0.09248061
6	0xbcde9fcd	-0.027175808
7	0xbd03a49e	-0.032139413
8	0x3cfa7444	0.030573018
9	0x3bfdff3d	0.007751374
10	0x3ca6efb8	0.020377979
11	0xb8e734fb	-0.00011024807
12	0xbcefb8bd	-0.029262895
13	0xbcf9f9bb	-0.030514589
14	0xbe36f4e4	-0.17866856
15	0x3cac5f74	0.02104161
16	0xbd8ccb9e	-0.068747744
17	0xbdc383b2	-0.09546603
18	0xbe1d5cda	-0.15367451
19	0x3c87e6c8	0.016589537
20	0x3a9839b4	0.0011613877
21	0xbf23ed63	-0.640341
22	0xbeb4ac47	-0.35287687
23	0xbe326d3d	-0.17424484
24	0xbe9b982d	-0.30389538
25	0xbe658158	-0.22412622
26	0xbd8dc9d1	-0.06923259
27	0x3d976dd0	0.07393992
28	0xbcc8146f	-0.024423806
29	0x3e351e2b	0.1768729
30	0xbcfa2062	-0.03053302
31	0x3d9ddcdf	0.077081434
32	0x3e8e2623	0.2776347
33	0x3ca73de8	0.020415261
34	0x3e83c5c1	0.25736812
35	0x3e43dfa5	0.19128282
36	0x3daca1b7	0.08429282
37	0xbd5779b2	-0.052606292
38	0x3e2682b1	0.16260792
39	0x3dc9dd2c	0.09856638
40	0x3b5e5f7e	0.003393143
41	0x3d865ffc	0.06561276
42	0x3e27f0e7	0.1640049
43	0x3d4c7bd8	0.049922794
44	0x3e018e01	0.12651826
45	0x3cc5e1ec	0.02415558
46	0xbd344fbd	-0.044021357
47	0xbd73e164	-0.05954112
48	0x3d89505c	0.067047805
49	0xbc398e43	-0.011325422
50	0x3dd8de39	0.105892606
51	0xbd866947	-0.06563049
52	0x3d5616f2	0.052267976
53	0xbb71a1a2	-0.0036870022
54	0x3d4a947c	0.049458012
55	0xbdaa6cc6	-0.08321528
56	0xbe00ad04	-0.12566
57	0xbcb9ce05	-0.022681246
58	0xbe2eeb8e	-0.17082044
59	0xbe1276d9	-0.1430315
60	0xbe9c86be	-0.3057155
61	0xbea4e85c	-0.32208526
62	0xbecd8d7f	-0.40147015
63	0x3d597dbf	0.053098436
64	0xbe1c2547	-0.15248595
65	0x3be7c0be	0.007072537
66	0x3c9a4244	0.018830426
67	0x3db47305	0.08811001
68	0xbcd68256	-0.026185196
69	0x3e0f0c3c	0.13969511
70	0x3cee86d8	0.029117033
71	0x3e0e1dcf	0.13878559
72	0xbd4e86b6	-0.05042144
73	0xbd0ea42f	-0.034824546
74	0x3d131805	0.03591158
75	0x3c421c0c	0.011847507
76	0xbd2fd02e	-0.042923145
77	0xbd9fd220	-0.0780375
78	0x3da5562e	0.08073078
79	0xbc039999	-0.008032226
80	0x3d627896	0.05529078
81	0xbba4d367	-0.005030084
82	0xbcf741fb	-0.03018283
83	0x3c9b4503	0.018953806
84	0xbdc225a0	-0.09479833
85	0xbd6c88a6	-0.057747506
86	0x3d8cbe06	0.068721816
87	0xbd80a859	-0.0628211
88	0x3d961fe3	0.07330301
89	0x3c68695e	0.014185278
90	0x3db842aa	0.0899709
91	0xbcdfe4a2	-0.0273307
92	0xbd1b2c43	-0.03788401
93	0x3db6f26f	0.08932959
94	0x3d64196a	0.0556883
95	0xbd294e8a	-0.041334666
96	0x3de61e43	0.11236241
97	0xbc0972df	-0.008389204
98	0xbc2fb922	-0.010725291
99	0xbd8d0aa2	-0.06886794
100	0xbd3afbf4	-0.045650437
101	0x3cc0665c	0.023486309
102	0xbdf51c63	-0.11968305
103	0x3cd7cd40	0.026342988
104	0x3d560a7c	0.052256092
105	0xbd93a115	-0.07208458
106	0xbd8880ae	-0.06665169
107	0x3db3e506	0.08783917
108	0x3e816b0b	0.2527698
109	0x3de81e82	0.11333944
110	0x3e5dea69	0.21671452
111	0xbc38acdd	-0.011271683
112	0x3d486892	0.04892785
113	0xbc6a2416	-0.01429083
114	0x3e2e11ce	0.1699898
115	0x3d21a533	0.039464187
116	0x3e1921e7	0.14954339
117	0x3cf76c0d	0.03020289
118	0x3cef04bb	0.02917706
119	0x3e4bed7b	0.1991481
120	0x3db2787a	0.08714385
121	0x3d1ad087	0.037796523
122	0x3d64fb09	0.05590347
123	0x3e0d2a05	0.1378556
124	0xbcbccde8	-0.023047403
125	0x3e65b410	0.2243197
126	0x3da77947	0.08177429
127	0xbc1d90ed	-0.0096170725
128	0x3d0f3831	0.034965698
129	0x3e2b0546	0.1670123
130	0xbc815bde	-0.015790876
131	0xbdba57c4	-0.09098771
132	0x3d408413	0.047000956
133	0xbd3fb7a6	-0.046806
134	0x3d3680d4	0.044556454
135	0xbe41362f	-0.18868326
136	0xbcd5eefb	-0.026114931
137	0xbd03ceb0	-0.032179534
138	0xbdf73658	-0.12070912
139	0xbda77ef6	-0.08178513
140	0xbd8f8f06	-0.070097014
141	0x3cb30d39	0.021856891
142	0x3cada111	0.021194967
143	0xbd13edbd	-0.036115397
144	0xbe00e47d	-0.12587161
145	0xbdab5b05	-0.0836697
146	0xbdc8b099	-0.09799308
147	0x3cc01f5a	0.02345245
148	0xbdd8abea	-0.10579665
149	0xbd7199a5	-0.058984417
150	0x3d49c1ff	0.049257275
151	0xbbfb7f19	-0.0076750633
152	0xbcd5076d	-0.026004517
153	0xbdc5f9af	-0.09666764
154	0xbdec181a	-0.115280345
155	0xbcdac045	-0.02670301
156	0xb88baf86	-6.66073e-05
157	0xbd10de55	-0.035368282
158	0xbcde9172	-0.027168963
159	0x3d263d49	0.04058579
160	0xbd36d595	-0.04463728
161	0x3b9998b6	0.004687394
162	0xbd8e716a	-0.06955226
163	0x3d4a2d6b	0.04935972
164	0xbd020cfa	-0.031750657
165	0xbd20a301	-0.039217953
166	0x3d3dfd8f	0.04638439
167	0xbd9b0198	-0.07568663
168	0x3cdd875c	0.027042083
169	0x3d51e855	0.05124696
170	0x3ccbea05	0.024891863
171	0xbcd4418a	-0.025910158
172	0x3cad98e2	0.021191064
173	0x3c2052f6	0.009785404
174	0xbdb28ebc	-0.08718631
175	0x3d2a3265	0.041551966
176	0x3ce335b4	0.027735569
177	0xbe84a38e	-0.25906032
178	0xbda801e4	-0.082034856
179	0xbdd52fc8	-0.10409504
180	0x3df3fdde	0.11913656
181	0xbe0557ad	-0.13021727
182	0xbcbb6931	-0.022877308
183	0x3c9375d9	0.01800053
184	0xbe25ec9e	-0.16203544
185	0xbe60d695	-0.21956857
186	0x3dfc3cb3	0.12316265
187	0x3dd0ff14	0.10204902
188	0xbbc390af	-0.0059681754
189	0x3e1cca0b	0.15311448
190	0x3db264c5	0.087106265
191	0x3cde71fe	0.027153965
192	0x3bd76516	0.0065733297
193	0xbc94a74f	-0.018146185
194	0x3c040814	0.008058567
195	0x3c546b6e	0.012965066
196	0xbddace07	-0.10683828
197	0xbdf3ecee	-0.11910425
198	0xbdada0fb	-0.0847797
199	0xbd994d43	-0.0748544
200	0xbd8d159c	-0.06888887
201	0x3c84c24f	0.016205935
202	0xbe07563a	-0.13216487
203	0x3e162333	0.14661865
204	0x3d87461d	0.0660517
205	0x3bd6212a	0.006534715
206	0x3d3a97d7	0.045554962
207	0x3d157a1e	0.036493413
208	0xbdffbd29	-0.12487251
209	0xbea03911	-0.31293538
210	0x3d9ce2a5	0.076604165
211	0xbdd90420	-0.1059649
212	0xbd8979d7	-0.06712692
213	0x3cb1a5c2	0.021685485
214	0xbd79e66b	-0.06101076
215	0xbe5b232a	-0.21400133
216	0xbdc58020	-0.096435785
217	0xbd772be3	-0.060344588
218	0xbcfd7033	-0.03093729
219	0x3cbbfe85	0.022948513
220	0x3dd42d9a	0.1036026
221	0x3dd836a3	0.10557296
222	0x3b03af94	0.0020093666
223	0x3ce9726f	0.028496949
224	0x3df99da9	0.121882744
225	0x3e03648f	0.12831329
226	0xbd5502f0	-0.052004755
227	0x3e0a1106	0.13483056
228	0x3db0b7c2	0.08628799
229	0x3d33bcf4	0.04388137
230	0x3dea74e0	0.114480734
231	0x3d0d0711	0.034430567
232	0xbc11da9a	-0.008902216
233	0x3dc81390	0.09769356
234	0xbdd93be9	-0.1060713
235	0xbe2c2f6e	-0.16814968
236	0xbe9d9152	-0.30774933
237	0xbda069cd	-0.0783268
238	0xbe1d510d	-0.1536295
239	0xbe853b22	-0.26021677
240	0x3d157bbf	0.036494967
241	0xbd8c2a5a	-0.068440154
242	0xbe41d53a	-0.18928996
243	0x3d626421	0.05527127
244	0xbdfe04d4	-0.12403265
245	0xbe5a2cbd	-0.21306129
246	0x3df492bf	0.11942052
247	0xbcd27164	-0.025688834
248	0x3d20bd7d	0.03924321
249	0x3c5b2e04	0.01337767
250	0xbddac6e6	-0.10682468
251	0xbdba1abd	-0.09087131
252	0xbb32a313	-0.0027257844
253	0xbdf0f855	-0.117661156
254	0xbdf9a5f1	-0.12189854
255	0xbd846ced	-0.064660884
