ccrater/variables/conv2d_2_kernel_0.npy (npy, 147584 bytes, 1 tensors)

array f4 [64, 64, 3, 3]
000000 5f 30 3a bc 25 9e bb bd 4b ec 47 bd 49 c9 47 bd
       -0.011364072 -0.09161023 -0.04880933 -0.048775945
000010 ef 89 e7 ba 2a 75 16 be 9c 05 a8 3d ed 62 39 3d
       -0.0017665009 -0.14693132 0.08204195 0.04526036
000020 7c 02 60 3d b4 11 9e 3d 50 b0 9e bd 78 89 8e 3d
       0.05468987 0.0771822 -0.07748473 0.06959814
000030 e8 ae b8 3d 37 5c a8 bd d4 c6 1a be d1 74 71 bd
       0.09017736 -0.082207136 -0.1511491 -0.058949295
000040 65 02 b5 be c2 de 97 bd 4e 9a 97 3b 50 0f c0 bc
       -0.3535339 -0.074155346 0.004626549 -0.023444802
000050 93 b8 4f 3d 6d b6 81 3c 27 37 cd bb a5 0a 94 3d
       0.050713133 0.015834058 -0.006262678 0.07228593
000060 09 4d ba bb 32 66 82 3d df 0b 4f 3d 06 d0 b0 bd
       -0.005685453 0.063671485 0.05054843 -0.08633427
000070 4a 00 70 3c 4e 57 02 be 18 63 20 3d 7f f4 1e bc
       0.014648506 -0.12728617 0.039157003 -0.009701847
000080 1d db 63 be a5 63 95 3d 23 07 99 bd 59 d2 c9 3d
       -0.22251554 0.07294396 -0.07472064 0.09854574
000090 a1 25 42 3d 6d 45 56 3d 3e 31 ba 3b 3a 05 ec bc
       0.047399167 0.052312303 0.0056821397 -0.028811086
0000a0 e5 dd 40 bd d5 0a b2 bb 84 c5 5a bd 96 a1 78 bd
       -0.047086615 -0.00543342 -0.05341102 -0.060700975
0000b0 51 90 50 bc 89 59 84 3e 46 a9 45 bd 27 4f d5 3b
       -0.01272972 0.2584956 -0.048257135 0.00650968
0000c0 e8 64 67 3c ce 1c 69 3c 3c 16 b1 3d a0 cf 92 be
       0.014123179 0.014228059 0.08646819 -0.2867403
0000d0 3b 2a cb 3d ed 63 e7 bd 5e a1 e0 3c 3a 97 c7 3d
       0.09920164 -0.11298356 0.027420696 0.09745641
0000e0 4c 3e 55 bd 8d d8 43 3c 18 95 0f 3e 69 2b c0 3d
       -0.052061364 0.011953485 0.14021719 0.0938328
0000f0 94 8c c6 bd 77 3a 52 be 8d b5 e2 3c 5a 3d c3 bb
       -0.09694782 -0.20530115 0.02767446 -0.0059582414
000100 72 8c 8f 3d 0a fa 7f bd 05 07 cd 3d c7 61 e1 bd
       0.0700921 -0.062494315 0.100111045 -0.11004978
000110 64 b5 cb bc 1b 2f 31 bc 03 de 81 be e4 3c 11 be
       -0.024866767 -0.0108144535 -0.25364694 -0.14183384
000120 60 e7 88 3d a4 b6 36 3c 24 cd 81 3b f1 2b 7b bd
       0.06684756 0.011151943 0.0039612222 -0.061321203
000130 e5 5e 0d 3d 95 62 6b bd 3a 39 03 3d ef 4b 44 3c
       0.034514327 -0.057467062 0.032036997 0.011980995
000140 e6 72 71 3d f6 d5 7a 3c f0 9d 9a 3d 8b 36 29 bc
       0.058947466 0.015309801 0.075496554 -0.010327945
000150 ed 29 6f be b9 fa 4b 3e 98 2d d5 3d dd 9e 13 bd
       -0.23355837 0.19919862 0.10409087 -0.036040176
000160 7f 6a 6d 3d 1b 40 45 3d cb 2e f7 3c 52 bf 4a bd
       0.05796289 0.04815684 0.03017368 -0.049498864
000170 71 05 31 3d 3a 78 cc 3c f4 b0 68 3d 89 9a 11 be
       0.04321808 0.024959672 0.05680938 -0.14219107
000180 d0 38 aa bd 14 26 d5 bd 06 3d 61 bb cd 10 2d 3d
       -0.083116174 -0.104076535 -0.0034368648 0.04225235
000190 21 e5 1f 3e 7b d8 04 3e 49 36 0a be d7 97 ac bd
       0.1561475 0.12973206 -0.1349727 -0.08427399
0001a0 3d 6d 8c bd ec 34 8b bc 38 3e 0f be 7b 89 2b bd
       -0.06856773 -0.016993009 -0.13988578 -0.04187916
0001b0 a7 ff 40 3b 22 bb 34 bd 34 c9 25 bd a8 b5 d9 bc
       0.0029449256 -0.044123776 -0.040475085 -0.026575878
0001c0 8c 02 15 3d dd 2c 6e 3c fb 25 0e bd 08 bc 4f 3d
       0.036379382 0.014537063 -0.03470419 0.05071643
0001d0 e1 b5 95 bd 3b 55 ca 3d d0 8f 1d bd 93 c6 f1 bd
       -0.07310081 0.09879538 -0.03846723 -0.11805453
0001e0 29 f3 cf bd 8d 5c 68 bc 4a 4a 54 be 73 03 04 bf
       -0.10153801 -0.014182222 -0.20731464 -0.51567763
0001f0 6f 0d 1b be 58 2e e2 be ff 03 3b 3e 16 1a b4 3d
       -0.15141843 -0.44175982 0.18263243 0.08794038
000200 ed a6 4c 3d 5b 7a 36 3d 34 b0 97 3d 4b 7e 84 be
       0.04996388 0.04455028 0.07406655 -0.25877604
000210 90 e6 de be e1 57 c6 be 76 12 fd be 62 40 62 be
       -0.4353528 -0.3873892 -0.49428147 -0.22094873
000220 29 ff 0a 3e a8 0a a6 bc 20 02 2b be 5a cc 68 bb
       0.13573898 -0.020268753 -0.1670003 -0.0035522194
000230 83 8a 3e 3c d7 1b 87 bd 02 1e 96 be 73 67 ab bd
       0.011629703 -0.06597107 -0.2931977 -0.08369341
000240 17 23 1b 3e 90 a1 1b 3e fa 53 b2 3d d8 50 b0 3c
       0.15150104 0.1519835 0.087074235 0.021522924
000250 9d 33 17 be a8 b2 7d bd 10 d8 97 be d9 5f 75 bd
       -0.14765783 -0.061937958 -0.2965703 -0.05990586
000260 75 9d c9 3d 9c fd 79 3e 94 ad 91 bc 6e 85 37 bc
       0.09844486 0.2441315 -0.017782964 -0.011201246
000270 14 be f2 bc 25 92 39 bd 62 1a 2a bd b3 e2 af be
       -0.029631652 -0.04530539 -0.041529067 -0.34352645
000280 2b ee 39 be e6 44 8c be a9 e7 fa ba 77 c9 69 3e
       -0.1815726 -0.27396315 -0.0019142526 0.22830759
000290 e6 93 82 bd 2c 31 24 be f9 bf c0 3d 2d fe 4b bb
       -0.06375866 -0.16034383 0.09411616 -0.0031126842
0002a0 fd b6 dc be 1f d3 c1 be 02 d2 c5 be 31 9f 9e 3c
       -0.4310836 -0.37856385 -0.38636786 0.019363018
0002b0 3e 83 66 3d cd 67 22 bd b3 6a 7f be a1 8b 78 be
       0.056277506 -0.039649773 -0.24943046 -0.24272014
0002c0 92 6a 05 be c4 7c 1c bb 7e 83 05 be 8c 41 88 3d
       -0.13028935 -0.0023878077 -0.13038442 0.06653127
0002d0 3f 9a 7a be 3f 30 b9 bb 12 b2 67 3e 7d 94 a6 be
       -0.24472903 -0.0056515033 0.22626522 -0.32535163
0002e0 57 a3 f4 bc 40 df 7f 3d af f4 c9 be 15 68 b7 be
       -0.029863043 0.062468767 -0.3944449 -0.35821596
0002f0 85 27 1f bb 40 4d 0f 3d 80 ab ac 3c d7 56 c7 3c
       -0.002428503 0.03498578 0.021077871 0.0243334
000300 bc 46 ae bb 0a f8 a6 bb c4 79 1c 3d 88 87 69 3d
       -0.005318491 -0.0050954865 0.038202062 0.05701402
000310 b9 a1 2a 3d be 39 18 3d 08 6c a6 3c b7 06 c6 bc
       0.041658137 0.037164442 0.020315185 -0.024173124
000320 b8 60 8d 3d c0 ff 18 3c 98 ce 91 bd de ce 1c 3c
       0.06903213 0.009338319 -0.07119483 0.009570805
000330 a4 7c b3 3b 37 db 83 bd fa 0a 8b bd 62 c8 97 3d
       0.005477505 -0.06438296 -0.06789203 0.07411267
000340 64 45 a5 bd 3f 83 6c be cf 50 8a 3d 43 ee 4a be
       -0.08069876 -0.23096941 0.06753694 -0.19817452
000350 b0 8f bb 3d 7e 79 da bd a2 b0 ad bd 18 f6 ce 3e
       0.091582656 -0.10667704 -0.08480956 0.4042213
000360 17 bc 36 be b7 a8 f4 bc c0 ef dc 3b 6c d4 f1 3c
       -0.17845188 -0.029865606 0.0067424476 0.029520236
000370 c8 3d 02 be a5 fa 83 bd 0e e6 c8 bd fb 04 7d bd
       -0.1271888 -0.06444291 -0.098095044 -0.061772328
000380 93 38 38 3d 98 9a 9a 3e 80 31 50 3e 27 2b 42 3e
       0.04497583 0.3019607 0.20331383 0.18961774
000390 da bf e3 3d 80 5a 8f 3d 53 31 13 be bc 9a 6d bd
       0.11120577 0.069996834 -0.14374284 -0.058008894
0003a0 e0 27 c6 3d f1 67 1f 3d 54 9c ad 3d 7e c3 9d 3d
       0.09675574 0.038917486 0.08477083 0.07703303
0003b0 2d b2 15 bd ef 0e 35 3d 10 ea fb 3c 17 47 57 bd
       -0.036546875 0.044203695 0.030751258 -0.05255803
0003c0 a1 41 ba bd 4b f3 16 bd 59 87 b0 bd f3 ed ec bc
       -0.09094549 -0.036853116 -0.086195655 -0.028922057
0003d0 88 b1 3a 3d 17 93 1e bd 22 68 ab bb 83 49 ce 3d
       0.045579463 -0.038714495 -0.0052309195 0.10072615
0003e0 5a e7 03 be 20 ac a3 bd f4 bd 5a be 32 cc 99 bd
       -0.12881222 -0.079918146 -0.21361524 -0.0750965
0003f0 b7 f1 e7 be 4d bf f2 be 55 c3 9a be 29 6a 94 be
       -0.453016 -0.47411576 -0.30227152 -0.28987244
