ccrater/variables/conv2d_6_kernel_0.npy (npy, 73856 bytes, 1 tensors)

array f4 [64, 32, 3, 3]
-0.015613741 0.08429748 0.19243203 -0.0012403954 -0.1028311 0.07843461 0.042529806 0.040476147
0.15535985 -0.18083625 -0.06601443 0.05181943 -0.11228489 -0.055029448 -0.012319619 -0.13792247
-0.10398538 0.02729639 -0.06369266 -0.03844886 -0.24312066 -0.060993686 -0.09543264 -0.13661754
-0.0056308787 -0.13076662 -0.1195378 0.12820436 -0.04484031 -0.21499713 -0.08344955 0.011666355
-0.11705551 -0.040529706 -0.146246 -0.12338312 -0.08642934 0.13834089 0.12642041 -0.033915155
0.04652745 0.05414579 -0.14696099 0.121091664 0.11332138 0.016569356 0.07882478 -0.30259004
-0.028728748 -0.04242745 -0.33179295 -0.08317614 -0.030640777 -0.0033768585 -0.048233416 -0.24814835
-0.5208035 0.08479384 -0.108255416 -0.29406005 -0.28451943 -0.15489477 -0.31857297 0.045666337
-0.11095157 0.016807249 0.01274476 -0.09738182 0.07226597 -0.0075762644 0.05312777 -0.017921189
0.18753704 -0.20087665 -0.031162605 0.044368766 -0.09187393 0.038478807 0.2947845 -0.42281613
0.017777236 -0.24187975 0.055776753 0.032940168 -0.25060374 -0.10509226 -0.04665699 -0.37612748
-0.22672679 -0.19300817 0.015469787 -0.059742406 -0.16066816 -0.03983656 -0.07702175 -0.010729729
-0.08189461 -0.057696532 -0.026287595 0.05345808 -0.09429775 0.013597899 0.027712459 -0.093720324
0.06424192 0.044812385 -0.098408826 -0.04420576 -0.22174008 -0.15606777 0.1879918 -0.24832182
0.026376702 0.2557206 -0.13811962 -0.14996333 0.22330359 -0.017761998 -0.034206193 0.09608716
-0.031892765 0.07098569 0.07469078 -0.058609422 -0.07991804 0.013718577 -0.21846642 -0.077958144
-0.075628296 -0.15311028 -0.12892422 -0.028919924 0.031447854 -0.1881207 0.10469464 0.025602492
0.023814403 0.011280064 0.07981088 0.061704673 -0.09040588 0.082880214 0.06391516 0.01578302
-0.100637265 -0.0092432005 -0.09349237 -0.1396856 -0.18356639 -0.16598886 -0.09933268 -0.11683038
-0.06823794 -0.17884304 0.034500953 -0.020873856 -0.15476273 0.009349861 0.021387989 -0.08672452
0.06298904 0.04954795 -0.032030713 0.0019953342 0.18188582 0.04324727 0.007869895 0.08115433
0.049618747 -0.16114293 -0.02782642 0.054593395 0.029897848 -0.0742145 -0.06853131 -0.04282688
-0.46134034 0.018489685 0.04243437 -0.20919634 -0.18446088 -0.111658804 -0.1606027 0.042574912
-0.116879486 -0.12531087 -0.11898437 -0.048631627 -0.06293094 -0.012257349 -0.02792519 -0.22201356
0.025227994 -0.2300455 -0.29312775 0.06085946 0.026330782 -0.1526714 -0.070388645 -0.16154058
-0.28410625 -0.020861479 -0.29565045 -0.4046778 0.0932442 -0.009571645 -0.053199347 -0.21158536
-0.041693117 0.010396143 -0.18478665 0.09813347 0.06574406 -0.0675985 -0.001602815 0.0038659314
0.03183463 0.0400226 -0.22465013 -0.0068559553 -0.04295661 -0.24309056 -0.015699888 -0.029381849
-0.058691844 0.049374286 -0.15203355 0.046787847 -0.022065759 0.05876838 0.036931686 0.04557239
-0.03407895 0.06198135 0.11912871 -0.26361617 -0.24142677 0.067948624 -0.51776993 -0.42143932
0.065071106 -0.32655042 -0.2245798 -0.04148028 -0.20312606 0.15228486 0.018303713 -0.09702224
0.06410519 -0.11886828 -0.3022064 0.047144122 0.067003034 0.024105802 -0.11859516 0.011402133
00000000: c7d0 7fbc 28a4 ac3d e70c 453e c394 a2ba
00000010: 1d99 d2bd 53a2 a03d bc33 2e3d 51ca 253d
00000020: a716 1f3e 232d 39be 9332 87bd 9c40 543d
00000030: 9ff5 e5bd 8f66 61bd 3ad8 49bc 8c3b 0dbe
00000040: 49f6 d4bd ae9c df3c 4c71 82bd 8d7c 1dbd
00000050: 9ff4 78be 84d4 79bd 3072 c3bd 78e5 0bbe
00000060: 3c83 b8bb afe7 05be 3cd0 f4bd 0148 033e
00000070: 79aa 37bd 3528 5cbe 99e7 aabd 3d24 3f3c
00000080: cdba efbd 7a02 26bd 83c1 15be 4ab0 fcbd
00000090: de01 b1bd 3ca9 0d3e 5a74 013e 9eea 0abd
000000a0: 9193 3e3d fac7 5d3d f17c 16be e8fe f73d
000000b0: 0a15 e83d 75bc 873c e36e a13d 15ed 9abe
000000c0: 8d58 ebbc 68c8 2dbd c4e0 a9be 4158 aabd
000000d0: 5e02 fbbc 494e 5dbb 6790 45bd 9a1a 7ebe
000000e0: 6153 05bf 65a8 ad3d 04b5 ddbd 0a8f 96be
000000f0: 88ac 91be bc9c 1ebe ff1b a3be a00c 3b3d
00000100: 943a e3bd 5baf 893c 66cf 503c 1f70 c7bd
00000110: 2e00 943d 5042 f8bb 819c 593d 75cf 92bc
00000120: b609 403e 9cb2 4dbe b848 ffbc 06bc 353d
00000130: 6628 bcbd f49b 1d3d feed 963e 5b7b d8be
00000140: 91a1 913c 53af 77be 2a76 643d 45ec 063d
00000150: 224f 80be 9c3a d7bd 661b 3fbd c893 c0be
00000160: 112b 68be efa3 45be fd74 7d3c 74b4 74bd
00000170: 3286 24be a92b 23bd 94bd 9dbd bfcb 2fbc
00000180: 5cb8 a7bd 3353 6cbd 1559 d7bc dcf6 5a3d
00000190: 2e1f c1bd b9c9 5e3c 3d05 e33c 71f0 bfbd
000001a0: 4591 833d 318d 373d 918a c9bd 1911 35bd
000001b0: d50f 63be 3bd0 1fbe ec80 403e 1348 7ebe
000001c0: f413 d83c cfed 823e 3b6f 0dbe fd8f 19be
000001d0: b2a9 643e 9c81 91bc cb1b 0cbd 58c9 c43d
000001e0: fda1 02bd f260 913d 7bf7 983d 6f10 70bd
000001f0: 12ac a3bd e2c3 603c a9b5 5fbe 85a8 9fbd
00000200: 02e3 9abd f1c8 1cbe b604 04be 7ae9 ecbc
00000210: 77cf 003d b6a2 40be 256a d63d 51bc d13c
00000220: 6c16 c33c 04d0 383c e373 a33d 0abe 7c3d
00000230: b826 b9bd 1abd a93d f4e5 823d 644b 813c
00000240: e91a cebd cb70 17bc ed78 bfbd be09 0fbe
00000250: d4f8 3bbe fcf8 29be ef6e cbbd c444 efbd
00000260: 55c0 8bbd a122 37be df50 0d3d a6ff aabc
00000270: 1f7a 1ebe 2930 193c dd35 af3c a09c b1bd
00000280: 6600 813d cbf2 4a3d a332 03bd 27c4 023b
00000290: 4740 3a3e 0d24 313d bbf0 003c 3e34 a63d
000002a0: 073d 4b3d a702 25be 3bf4 e3bc 539d 5f3d
000002b0: 55ec f43c c6fd 97bd 255a 8cbd 3d6b 2fbd
000002c0: cd34 ecbe ae77 973c a9cf 2d3d 9137 56be
000002d0: 50e3 3cbe 5fad e4bd 0975 24be 0863 2e3d
000002e0: 835e efbd 7e51 00be 14ae f3bd f531 47bd
000002f0: f0e1 80bd 0cd3 48bc 5ec3 e4bc 8657 63be
00000300: f0aa ce3c 0c91 6bbe d714 96be c547 793d
00000310: a7b3 d73c e455 1cbe ec27 90bd e56a 25be
00000320: 6076 91be b1e5 aabc 7f5f 97be ee31 cfbe
00000330: d1f6 be3d 64d2 1cbc 8fe7 59bd d5a9 58be
00000340: 67c6 2abd 9654 2a3c b638 3dbe 33fa c83d
00000350: d2a4 863d 1571 8abd 8c15 d2ba 915b 7d3b
00000360: 0765 023d bdee 233d af0a 66be eca7 e0bb
00000370: 45f3 2fbd bbec 78be 0d9d 80bc 34b2 f0bc
00000380: dc66 70bd b13c 4a3d afae 1bbe 9da4 3f3d
00000390: 40c3 b4bc 1db7 703d ae45 173d 1daa 3a3d
000003a0: 5e96 0bbd 28e0 7d3d c1f9 f33d b3f8 86be
000003b0: 9438 77be a628 8b3d 928c 04bf e5c6 d7be
000003c0: 0044 853d 9e31 a7be 3ff8 65be 3ae7 29bd
000003d0: 4700 50be 90f0 1b3e abf1 953c 99b3 c6bd
000003e0: 9549 833d 3671 f3bd ccba 9abe 321a 413d
000003f0: e338 893d 8879 c53c 05e2 f2bd 03d0 3a3c
