ccrater/variables/mos_estimator_logpow_dense_BiasAdd_ReadVariableOp_resource_0.npy (npy, 640 bytes, 1 tensors)

array f4 [128]
0	0xbd2eccf9	-0.042675946
1	0x3eb0a795	0.34502855
2	0x3e3ffcb3	0.18748741
3	0x3e0bdb59	0.13657893
4	0x3e855bc4	0.26046574
5	0x3da1cdd4	0.07900587
6	0xbe711977	-0.2354487
7	0x3e879f82	0.26488882
8	0xbd45b6fb	-0.048270207
9	0x3ecf9bd7	0.40548584
10	0x3e7f29a8	0.24918234
11	0x3e54194d	0.20712776
12	0x3e86f5b1	0.26359323
13	0xbd6ebea8	-0.058287293
14	0xbcedcc73	-0.029028153
15	0x3e02961d	0.12752576
16	0xbcfe593c	-0.03104841
17	0x3d405855	0.04695924
18	0xbd7ffd8b	-0.062497657
19	0xbd810c33	-0.06301155
20	0xbd8ecb76	-0.06972401
21	0x3d77041d	0.060306657
22	0x3ec61f22	0.38695627
23	0x3e980129	0.29688385
24	0x3d5ba5bf	0.053624865
25	0x3e2479e5	0.16062124
26	0x3e8190c7	0.2530577
27	0x3eb3cc58	0.3511684
28	0x3e882fd1	0.2659898
29	0x3e01cf00	0.1267662
30	0xbd511487	-0.051044967
31	0xbcca25bf	-0.024676202
32	0xbd38d22a	-0.045122303
33	0xbd2ba7f6	-0.041908227
34	0x3e36f9f3	0.17868786
35	0x3dfbc2e8	0.12293035
36	0x3ee50183	0.44727716
37	0x3e92d0f6	0.2867505
38	0xbed1982e	-0.40936416
39	0xbcf6ac2f	-0.0301114
40	0x3ce7cadb	0.028294971
41	0xbeea69ac	-0.45783746
42	0x3e5a0ff1	0.21295144
43	0x3da920cf	0.08258211
44	0x3eb93df9	0.36180094
45	0xbcc742ad	-0.024323786
46	0x3e7630d0	0.24042058
47	0x3e371cad	0.17882033
48	0xbda1ee67	-0.079068
49	0xbe3bc400	-0.18336487
50	0xbd6abe64	-0.057310477
51	0x3c87391a	0.01650672
52	0x3d99feda	0.07519312
53	0xbd99c0cb	-0.075074755
54	0x3d7a9d80	0.06118536
55	0x3e1ab05e	0.15106341
56	0x3ea25af2	0.3171001
57	0x3eb2f430	0.34951925
58	0x3e9ab256	0.30214185
59	0xbd715b4a	-0.05892495
60	0xbe2b3757	-0.16720329
61	0xbdb6dd57	-0.08928936
62	0xbeb3d686	-0.35124606
63	0xbbdc7ca3	-0.006728725
64	0x3e08adef	0.133476
65	0x3eaf45b4	0.34232867
66	0x3e644756	0.22292838
67	0x3e74d681	0.23909952
68	0xbd7a9c19	-0.061184023
69	0xbed59f78	-0.41723228
70	0xbd61d967	-0.05513897
71	0x3e699df7	0.22814165
72	0x3e9e4b09	0.30916622
73	0x3e20630d	0.15662785
74	0xbd0218bc	-0.03176187
75	0xbd0216cf	-0.031760033
76	0x3e825a0f	0.25459334
77	0xbf252cb7	-0.64521354
78	0x3eaed8d7	0.3414981
79	0xbdc4c702	-0.0960827
80	0x3eb4da78	0.35322928
81	0x3ece0ec9	0.40245655
82	0x3c812541	0.015764834
83	0x3c1ea192	0.009682076
84	0x3e868225	0.26271167
85	0xbd93bfb6	-0.072143
86	0x3ea32eb6	0.31871575
87	0xbf26249e	-0.64899623
88	0xbd5b39c2	-0.05352188
89	0x3ea112ce	0.3145966
90	0x3ee2a248	0.44264436
91	0x3eb48898	0.35260463
92	0x3d0434cf	0.032276925
93	0x3ed9e5d5	0.4255816
94	0x3da9a5ee	0.08283602
95	0xbd46fcde	-0.048580997
96	0x3ebbe079	0.36694697
97	0x3e49cb70	0.19706511
98	0x3ea70e61	0.32628158
99	0xbd75d024	-0.06001295
100	0x3e12d90a	0.14340606
101	0x3e246b42	0.1605654
102	0xbdb5fafb	-0.08885761
103	0x3e88a7bc	0.2669047
104	0x3e7e3589	0.2482511
105	0xbd43c741	-0.047797445
106	0x3d2b3156	0.041795097
107	0xbf20ac41	-0.6276284
108	0xbd22df6c	-0.039763853
109	0xbc523778	-0.012830608
110	0x3d3ea339	0.04654238
111	0x3ea714bb	0.32633004
112	0xbec34bdf	-0.38143823
113	0xbd1b15bc	-0.037862524
114	0xbc7ae1f3	-0.01531266
115	0xbe827d52	-0.25486237
116	0xbef1b9c8	-0.47212052
117	0x3a06301b	0.00051188626
118	0xbd88c8eb	-0.06678947
119	0x3e4fbc71	0.20286728
120	0x3ec49455	0.38394418
121	0xbd90a8d9	-0.07063455
122	0xbd39dae8	-0.04537478
123	0x3d03dd99	0.032193754
124	0xbd63514b	-0.05549745
125	0xbcff2c35	-0.03114901
126	0xbd87a427	-0.066231064
127	0xbc91f3f8	-0.017816529
